Chapter 11/models/best_model.pth (torch, 13625 bytes, 5 tensors)

net.0.weight f4 [64, 7]
000000 b6 f6 e5 3f 39 a0 b7 3f f9 8a b8 3e 31 1a 18 40
       1.7965915 1.4345771 0.36043528 2.3765986
000010 42 d9 9b bf 10 44 51 c0 8e 17 12 c0 e2 f8 13 bf
       -1.2175677 -3.2697792 -2.2826877 -0.5780164
000020 d4 47 b9 be 9c 1c df 3f ea 40 e9 3f 59 83 5c bf
       -0.36187613 1.7430606 1.8222935 -0.8613792
000030 8c 4c a6 3f 9d e9 d0 3f 8a 67 03 be 21 66 01 40
       1.299211 1.6321293 -0.12832466 2.0218585
000040 bb 99 ef bf eb fb a4 be 1a cb 39 40 8c 2d 5e 40
       -1.871879 -0.32223448 2.9030213 3.47153
000050 c9 b1 a1 3f 80 fb 99 3f fe da cd 3f 1c ca b7 bf
       1.2632381 1.2029877 1.6082456 -1.4358554
000060 85 23 d0 3f b9 ec ab bf b8 bf 17 40 81 8f 48 3f
       1.626084 -1.3431617 2.3710766 0.7834397
000070 bc 65 99 3f 39 da a6 3f 38 b4 14 3f 87 b9 65 3d
       1.1984172 1.3035346 0.5808749 0.056085136
000080 4a 9d 6a 40 ba 67 71 40 01 57 a4 3f 01 90 ab bf
       3.6658502 3.771956 1.2839051 -1.3403322
000090 dd d4 03 40 a8 df 99 3f 7e d9 2f bf 85 ff 50 c0
       2.0598671 1.202138 -0.6869124 -3.2655957
0000a0 e3 e7 6d 40 63 bb e3 bf ba 95 fd bf b2 df 15 40
       3.7172782 -1.7791561 -1.9811318 2.3417783
0000b0 b7 d3 f4 bf 7d ba 4d bf d7 f9 8f 3f 6c ad d2 be
       -1.912711 -0.80362684 1.124812 -0.41147935
0000c0 94 59 af 3f 31 3d 15 40 6c fd 34 3f 33 d5 05 3f
       1.3699212 2.3318598 0.7069919 0.5227844
0000d0 57 c4 cb bf 12 23 df 3f 62 a9 68 40 85 77 a9 3f
       -1.5919293 1.7432578 3.6353383 1.32396
0000e0 15 db ac 3f 94 fb cf 3f dd 2a 90 bf ce c0 c7 bf
       1.3504359 1.624865 -1.1263081 -1.5605714
0000f0 bd 6e 33 c0 fc 49 53 c0 33 34 9d bf b8 71 60 3f
       -2.803634 -3.3013906 -1.2281555 0.8767352
000100 50 5b cb 3f 26 2e aa 3f 1a 54 13 40 c1 85 0f c0
       1.5887241 1.3295333 2.3020082 -2.2425387
000110 e7 b9 4a c0 3f 2b 0f c0 85 a4 da 3f dd 74 cf 3f
       -3.1675966 -2.2370145 1.7081457 1.6207539
000120 91 91 93 3f 57 6f 73 be 5c e4 62 40 89 40 54 c0
       1.1528798 -0.23772942 3.545188 -3.316439
000130 17 29 4c bf 8d c3 c8 3f 7b b6 dc 3f 60 94 cb bf
       -0.797502 1.5684677 1.7243189 -1.5904655
000140 5c 54 c2 be a8 fa 77 c0 81 4e 15 40 31 37 b4 bf
       -0.37954986 -3.8746738 2.3329165 -1.4079343
000150 08 b7 a0 3f 99 a2 b4 3f 9e 1a 9a 3f ab eb be bf
       1.2555857 1.4112121 1.2039373 -1.491567
000160 10 47 3f c0 e0 28 77 40 97 35 77 3f 71 4c 8b 3f
       -2.9887123 3.8618698 0.96566147 1.0882703
000170 96 ad bb 3f 3a 0c bc be 13 89 4f 3f 44 b4 2f c0
       1.4662349 -0.36728078 0.81068534 -2.7453775
000180 59 4d 54 c0 87 ad c6 3f cf f2 6a 3f d6 5f 8e 3f
       -3.317221 1.5521706 0.91776747 1.1122997
000190 e9 cd 01 40 bc 7d d7 be 76 42 db be 49 8d 2b 40
       2.0281928 -0.42088115 -0.42824143 2.6804984
0001a0 3b b5 f5 bf 3f b6 bb 3f 1c 87 89 3f 53 b2 85 3f
       -1.9195932 1.4664992 1.0744357 1.0445045
0001b0 ee bc c4 3f c0 34 55 c0 7a 01 7a 40 b8 fe f4 bf
       1.5370157 -3.3313446 3.9063401 -1.9140234
0001c0 0c 4b 9f 3e 89 93 04 40 92 24 ca 3f ac bb 0d c0
       0.31111944 2.0715048 1.579241 -2.2145796
0001d0 1b d0 5f c0 93 87 35 c0 2c c5 f3 3f ac c9 f9 3f
       -3.4970767 -2.8363998 1.9044547 1.951467
0001e0 41 aa a5 3f d0 2b c5 3f 0c 4f 9a bf 2c f3 5d 40
       1.2942582 1.5403996 -1.2055373 3.467967
0001f0 24 4d 6b 40 ce e4 28 bd cf 80 c3 3f 59 03 02 40
       3.6765833 -0.04123383 1.5273684 2.0314543
000200 17 5b ae bf df 70 fa 3f b8 1d 6a 3e 34 44 14 c0
       -1.3621548 1.9565696 0.228629 -2.3166628
000210 cf df c0 3e 03 cc 97 3f fe c1 c6 3f a7 18 c5 3f
       0.37670752 1.1859134 1.5527952 1.5398148
000220 29 11 e5 3f ca 12 66 40 6c 2c 2e 40 dd ba 02 c0
       1.7895862 3.5948968 2.7214613 -2.0426552
000230 3e 05 fc 3f d3 de 64 3f 7a 55 0a bf 24 3e 9a 3f
       1.96891 0.894025 -0.54036677 1.2050214
000240 64 d1 5b c0 3f d1 4d 40 9f 1e 4c 3f ed e9 7c 3f
       -3.4346552 3.2158964 0.79734224 0.9879444
000250 c8 5e cd 3f e6 38 d4 bf bb 73 b9 bf 06 70 81 c0
       1.604455 -1.6579864 -1.4488443 -4.0449247
000260 07 3a 75 40 5f 8c a5 3f 58 cb 84 3e 22 90 fd 3f
       3.8316667 1.2933463 0.2593639 1.9809611
000270 75 fd a9 3f d6 ac d0 bf ff 97 37 c0 56 25 1c 3f
       1.3280474 -1.6302745 -2.868652 0.6099447
000280 66 70 59 3f 18 12 d9 bf 6c 12 15 40 70 86 cf bf
       0.8493713 -1.6958647 2.3292494 -1.6212902
000290 9d 64 d3 3f 45 13 7a 40 1e e9 7a c0 4b ef 7a 3f
       1.651508 3.907426 -3.9204783 0.9802138
0002a0 1a eb 72 3f ea 43 f3 3e 3c 06 6c bf 77 77 d0 3f
       0.94889987 0.47512752 -0.9219701 1.6286458
0002b0 62 65 25 c0 0a 9d 34 c0 75 f3 dd 3f 79 58 65 be
       -2.584313 -2.822085 1.7339922 -0.22397031
0002c0 8d e1 f6 3f 67 bc 6c bf 8f 86 b7 3f 1c 14 4b c0
       1.9287583 -0.9247498 1.4337939 -3.1731024
0002d0 56 4b 7f 40 c8 71 88 3f 2a d0 c8 bf c5 0b 21 40
       3.9889731 1.0659723 -1.5688527 2.5163434
0002e0 f7 94 b5 bf e5 f1 b3 bf 6b 0a 73 c0 13 75 35 40
       -1.4186085 -1.4058195 -3.7975109 2.8352706
0002f0 8b a7 64 be 32 17 81 3f fc da dc 3f e6 50 5c 3f
       -0.22329538 1.0085204 1.7254329 0.8606094
000300 8d 73 af 3e 21 5b 77 40 d4 10 78 c0 2e e7 ce 3f
       0.34267846 3.864937 -3.876027 1.61643
000310 88 e9 07 40 c0 0b a1 3f 32 41 95 3e 03 95 13 40
       2.1236286 1.2581711 0.29151303 2.30597
000320 1d 40 c4 3f 8d ba 70 40 50 a2 27 3f c9 bd dd 3f
       1.5332066 3.7613862 0.65482044 1.7323543
000330 cc 61 01 40 57 26 8c bf 10 19 98 bf 1a 45 8e 40
       2.021594 -1.09492 -1.1882648 4.4459352
000340 bf 08 41 c0 12 3a e7 bf 7c 21 1f c0 4f 7b a4 3f
       -3.0161588 -1.8064597 -2.4864187 1.2850131
000350 99 10 c5 3f 98 31 cd bf ee 54 70 40 e6 08 3b 40
       1.539569 -1.603076 3.7551837 2.922418
000360 ab 49 c4 3f cc 16 2b bf e9 37 08 40 1c 8d bf 3f
       1.5334982 -0.6683166 2.1284125 1.4964938
000370 78 6c 6e bf a7 1b 48 c0 ce 09 77 c0 c2 1a cf be
       -0.9313426 -3.1266878 -3.8599734 -0.40450102
000380 33 7a d4 3f 5c de c8 3e 2a 93 dc bf 93 e8 c6 bf
       1.6599792 0.39232147 -1.7232411 -1.5539726
000390 db 6b 8d 40 e4 47 47 c0 b3 ac e0 bf 76 b1 5d 3e
       4.419416 -3.1137629 -1.7552704 0.21649727
0003a0 9e ee 0b 40 97 06 f6 3e da 8d a3 bf d6 39 49 40
       2.186439 0.48051903 -1.2777665 3.144155
0003b0 eb 99 54 be a8 78 bc 3f bf fa d8 3f a5 02 b3 3f
       -0.2076184 1.4724321 1.6951522 1.3985182
0003c0 88 11 81 3f 9d ae ca bf 5d 2e 2c 40 51 6e 84 40
       1.0083475 -1.5834538 2.6903298 4.1384664
0003d0 a3 cb b2 bf 72 15 83 3f bb d3 58 3f c8 cf f6 bf
       -1.3968395 1.024092 0.84698075 -1.928216
0003e0 7b 35 47 3d 00 e8 43 40 0e ce 2b 40 16 ea a5 3f
       0.048634987 3.0610352 2.6844516 1.2962062
0003f0 97 4c e9 3f 5f 1b d8 3f ee 5d f1 3f 3c 52 a7 3f
       1.8226498 1.6883353 1.885679 1.3071971

net.0.bias f4 [64]
000000 20 32 9a 40 cf 41 a9 40 05 c8 8d 40 66 a1 a9 40
       4.818619 5.2892833 4.4306664 5.300952
000010 3a 75 90 40 87 89 8a 40 e8 bd a5 40 53 f5 9b 40
       4.51431 4.329288 5.179432 4.873697
000020 96 d8 9c 40 7e c8 94 40 db 2a 97 40 c1 79 88 40
       4.9014387 4.649474 4.7239814 4.2648625
000030 ce ba 94 40 45 76 94 40 16 77 a3 40 94 95 9f 40
       4.6478033 4.639437 5.108287 4.987009
000040 10 82 95 40 11 9c 97 40 d8 e2 a9 40 77 85 91 40
       4.672127 4.737801 5.308941 4.547542
000050 6e 3b 98 40 2e d4 8f 40 18 fe 9d 40 4b c2 89 40
       4.7572546 4.494651 4.9372673 4.3049674
000060 ef 47 98 40 66 06 99 40 7f fe 84 40 89 71 97 40
       4.758781 4.782031 4.1560664 4.7326093
000070 f7 66 93 40 b0 34 86 40 be db 83 40 32 1b 8d 40
       4.606319 4.1939316 4.120574 4.4095697
000080 b0 51 8a 40 b4 64 a4 40 4c 34 89 40 e4 7a 9e 40
       4.3224716 5.137293 4.287634 4.9525013
000090 30 56 96 40 6a e3 96 40 78 d5 9a 40 68 e6 9a 40
       4.698021 4.7152605 4.838558 4.840626
0000a0 14 93 93 40 df 63 a8 40 b6 97 aa 40 55 4f 95 40
       4.611704 5.2621913 5.3310194 4.665934
0000b0 31 36 9d 40 89 84 96 40 93 8e 8e 40 87 ca 9b 40
       4.912865 4.7036786 4.454904 4.8684726
0000c0 55 f6 93 40 75 2d 88 40 27 4d 9e 40 80 fe 9c 40
       4.62382 4.255549 4.946918 4.906067
0000d0 d3 50 8d 40 55 74 a9 40 f5 de 9c 40 2b 30 8d 40
       4.416116 5.2954507 4.9022164 4.41213
0000e0 f2 2b 94 40 23 62 a5 40 f5 2b 8e 40 b0 49 96 40
       4.6303644 5.1682296 4.442866 4.696495
0000f0 9b ac 86 40 11 ea 90 40 ec fb 88 40 a7 6e a2 40
       4.20857 4.5285726 4.280752 5.0760074

net.2.weight f4 [32, 64]
000000 ae 4f 5a 40 3c 00 67 40 cd c4 63 40 88 f6 5f 40
       3.4111133 3.6093893 3.5588868 3.499422
000010 aa 55 62 40 b8 76 5a 40 57 95 61 40 d3 a0 61 40
       3.5364785 3.413496 3.52474 3.525441
000020 7b 0c 56 40 9a 7d 5a 40 d1 fc 6d 40 f7 38 55 40
       3.3445117 3.413916 3.7185557 3.3316019
000030 99 c6 60 40 b0 1d 63 40 e7 49 6d 40 66 f3 6b 40
       3.5121214 3.548687 3.7076356 3.6867309
000040 9e 6f 65 40 fc f7 65 40 f9 dd 55 40 72 58 57 40
       3.5849376 3.5932608 3.3416731 3.3647733
000050 c4 bd 67 40 cf 6b 5d 40 36 e9 62 40 8a 14 6f 40
       3.6209574 3.459705 3.545484 3.7356286
000060 fe bb 4d 40 3a aa 69 40 09 68 62 40 a8 63 74 40
       3.2145991 3.6510148 3.5375998 3.8185825
000070 19 40 5b 40 e6 69 55 40 57 54 56 40 9b dc 6c 40
       3.4257872 3.3345885 3.3488977 3.7009647
000080 c4 10 5f 40 c6 bc 60 40 7c 37 66 40 bb cf 67 40
       3.4853983 3.5115218 3.5971365 3.6220539
000090 37 43 4e 40 8b 0b 55 40 39 8d 66 40 73 54 57 40
       3.2228525 3.3288295 3.6023695 3.3645294
0000a0 26 b9 72 40 9b 2e 47 40 a8 26 4e 40 fe 3c 53 40
       3.7925506 3.1122196 3.2211094 3.3005977
0000b0 66 b9 5a 40 07 1a 61 40 42 3e 4d 40 74 b0 58 40
       3.4175658 3.5172136 3.206925 3.3857698
0000c0 62 af 69 40 94 3f 5b 40 c0 48 74 40 91 4c 64 40
       3.6513295 3.4257555 3.8169403 3.5671732
0000d0 44 76 5a 40 7c 4f 5b 40 fb 4d 58 40 51 21 5a 40
       3.4134684 3.4267263 3.3797596 3.4082835
0000e0 85 be 57 40 0b f6 55 40 63 f5 55 40 29 95 56 40
       3.3710034 3.3431423 3.3431022 3.352854
0000f0 80 81 57 40 e3 e4 5c 40 53 21 75 40 03 16 5d 40
       3.367279 3.4514701 3.830159 3.4544685
000100 58 b4 57 40 a3 24 67 40 db 35 60 40 34 3c 61 40
       3.3703823 3.6116111 3.503287 3.5192995
000110 b9 45 6a 40 de e8 52 40 3a cc 5e 40 88 6a 55 40
       3.6605055 3.295463 3.481215 3.3346272
000120 14 de 52 40 e6 2f 56 40 b0 00 67 40 0a 87 58 40
       3.2948046 3.3466735 3.609417 3.3832421
000130 7a 4d 63 40 2b b6 57 40 7e 3b 68 40 61 be 70 40
       3.5516038 3.3704937 3.628631 3.7616198
000140 46 57 60 40 04 ed 5a 40 02 e2 4c 40 3b d9 5c 40
       3.5053267 3.4207163 3.2012944 3.4507587
000150 08 68 68 40 1c 33 53 40 4a dc 5e 40 e4 9a 64 40
       3.6313496 3.2999945 3.4821954 3.5719538
000160 a0 83 4e 40 03 50 69 40 55 99 61 40 d9 6f 72 40
       3.2267838 3.6455085 3.5249836 3.7880766
000170 d1 01 57 40 a2 ae 58 40 5f 62 50 40 54 c6 6f 40
       3.3594859 3.3856587 3.256004 3.74648
000180 06 2d 59 40 07 81 51 40 0e 86 5e 40 8d 02 5e 40
       3.393373 3.2735002 3.476932 3.4689057
000190 5a 97 4d 40 bf 88 4d 40 3a 17 61 40 7a d8 54 40
       3.2123628 3.2114713 3.5170426 3.3257127
0001a0 4d d7 7a 40 39 50 49 40 1d 1a 4e 40 46 67 5d 40
       3.919391 3.1455214 3.2203438 3.4594283
0001b0 cf 7f 54 40 50 a8 5d 40 2f 4d 52 40 78 4b 56 40
       3.3203008 3.463398 3.285961 3.3483562
0001c0 7a 6c 71 40 e1 30 5c 40 d3 60 70 40 e7 df 54 40
       3.772246 3.4404833 3.7559097 3.326166
0001d0 83 64 5a 40 6c 21 54 40 e4 0c 4b 40 b5 ec 61 40
       3.4123847 3.31454 3.1726618 3.5300725
0001e0 2f f8 58 40 12 e9 53 40 7d cf 52 40 df b2 50 40
       3.390148 3.3111005 3.293914 3.2609174
0001f0 b5 3b 5c 40 f8 31 58 40 de 20 6a 40 e6 65 5b 40
       3.4411442 3.3780499 3.658256 3.4280944
000200 f1 97 4a 40 30 59 5f 40 bf 5d 57 40 89 d7 51 40
       3.1655238 3.4898186 3.3650968 3.2787802
000210 61 60 5b 40 e5 9a 52 40 8c aa 56 40 dc b8 50 40
       3.4277575 3.290704 3.3541594 3.261283
000220 c9 6e 51 40 64 40 54 40 8c 20 66 40 e5 b3 54 40
       3.2723868 3.31643 3.5957365 3.32348
000230 9c 44 55 40 0e e9 53 40 f9 73 68 40 eb 08 6f 40
       3.3323126 3.3110995 3.6320784 3.7349193
000240 e5 73 56 40 b9 75 55 40 ef a9 50 40 9a 25 57 40
       3.3508236 3.3353102 3.260372 3.36167
000250 94 7b 6f 40 2c 7a 5b 40 f4 70 55 40 f1 c5 5d 40
       3.7419176 3.4293318 3.335019 3.4652064
000260 98 c4 49 40 33 86 62 40 4f 55 5d 40 83 08 69 40
       3.1526241 3.5394409 3.4583318 3.6411445
000270 d9 60 59 40 dc cd 4c 40 78 af 51 40 3e 0b 71 40
       3.396536 3.2000647 3.2763348 3.7663112
000280 b7 2e 4d 40 0b 22 53 40 bb 68 5e 40 43 9a 56 40
       3.2059762 3.2989528 3.4751422 3.3531654
000290 7a c5 42 40 c1 54 54 40 48 9e 63 40 d5 d9 4c 40
       3.043303 3.317673 3.5565357 3.2007954
0002a0 57 a5 78 40 0a d6 42 40 2c 51 4c 40 b7 7b 5b 40
       3.8850915 3.044314 3.1924543 3.429426
0002b0 6f b6 4c 40 be 20 5f 40 37 c8 46 40 66 f3 55 40
       3.1986349 3.4863734 3.1059701 3.3429809
0002c0 a6 dd 64 40 ca 1f 59 40 f3 00 65 40 9e 4c 59 40
       3.5760283 3.3925653 3.578183 3.3953013
0002d0 85 62 61 40 0f 99 5b 40 76 64 4e 40 37 71 5f 40
       3.5216382 3.431217 3.2248816 3.491285
0002e0 b6 37 5e 40 7e cb 4d 40 2f ea 56 40 3e b5 53 40
       3.4721503 3.2155452 3.3580434 3.3079371
0002f0 f1 de 4d 40 fe e9 57 40 fe 1a 65 40 e2 08 50 40
       3.2167323 3.3736567 3.5797725 3.2505422
000300 05 ea 55 40 d1 f4 57 40 a0 12 56 40 79 7d 58 40
       3.3424084 3.3743174 3.3448868 3.3826582
000310 74 4c 66 40 e9 7e 57 40 e0 f0 56 40 dc e4 55 40
       3.5984163 3.367121 3.3584518 3.3420935
000320 c2 66 59 40 7f 78 4f 40 53 b8 5e 40 34 a2 55 40
       3.3968968 3.2417295 3.4800003 3.338025
000330 7a 83 63 40 13 65 61 40 45 98 66 40 f2 70 72 40
       3.5548997 3.521794 3.6030438 3.7881436
000340 e8 6e 59 40 c2 70 5c 40 ec 8f 50 40 90 4b 50 40
       3.3973942 3.4443822 3.2587843 3.254612
000350 22 25 63 40 64 8a 51 40 68 eb 66 40 ec 32 62 40
       3.5491414 3.2740717 3.608118 3.534358
000360 b8 98 53 40 a5 ee 65 40 96 b1 5a 40 bb a5 71 40
       3.3061962 3.5926907 3.417089 3.7757404
000370 7b 3f 55 40 5e 3a 4f 40 2a 05 54 40 40 3c 71 40
       3.3319995 3.2379375 3.3128152 3.7693024
000380 aa 15 50 40 28 ff 54 40 8e 06 65 40 0d ba 62 40
       3.2513223 3.3280735 3.578525 3.5426056
000390 7d 0c 53 40 41 85 52 40 6e ef 61 40 ce b9 48 40
       3.2976372 3.2893832 3.5302386 3.1363406
0003a0 03 b8 7b 40 56 e1 52 40 bf 77 48 40 fe 66 53 40
       3.9331062 3.2950034 3.1323087 3.3031611
0003b0 2b 65 57 40 30 27 55 40 cf 56 4b 40 cd 53 60 40
       3.3655498 3.3305168 3.1771734 3.5051148
0003c0 df 1d 6b 40 a0 0c 60 40 cf cd 70 40 67 58 58 40
       3.6736982 3.5007706 3.7625616 3.3803957
0003d0 fd ce 59 40 e9 2d 5c 40 33 13 4b 40 3c f4 5c 40
       3.4032586 3.4403021 3.1730468 3.452407
0003e0 35 7b 55 40 95 12 58 40 f9 3a 5a 40 a6 78 59 40
       3.335645 3.3761342 3.4098494 3.3979888
0003f0 0d 58 5d 40 29 8b 56 40 cf e4 65 40 da ae 4b 40
       3.4584992 3.3522437 3.5920904 3.182547

net.2.bias f4 [32]
000000 da 1d 5e 40 6a 43 5b 40 db 87 53 40 7b ec 53 40
       3.470572 3.4259896 3.305167 3.3113086
000010 91 5d 3e 3c 8f a9 b9 3d 22 3d 00 be 9d 57 5a bd
       0.011618988 0.09065544 -0.1252332 -0.05330621
000020 a3 ec 05 be 8d 2f 58 40 00 01 5f 40 23 aa 93 bd
       -0.13078551 3.3779023 3.484436 -0.072101854
000030 59 e2 4a 40 64 aa 7a bd a0 ab df bd d2 7e e6 bc
       3.1700652 -0.061197653 -0.10921407 -0.028136645
000040 24 c9 5d 40 87 d2 b2 3d 68 84 56 40 37 9c 4e 40
       3.4654016 0.08731561 3.3518314 3.2282846
000050 fa 4d 51 40 f7 d5 4d bc 32 63 53 40 6c c4 50 40
       3.2703843 -0.01256322 3.3029294 3.2619886
000060 ae 17 59 40 9c 44 ef bd 68 2c f4 bd e5 83 54 40
       3.3920703 -0.11683008 -0.11922532 3.3205502
000070 9d 17 4a 40 84 11 5a 40 b6 67 e7 bd 92 df c1 3d
       3.1576912 3.407319 -0.11299078 0.09466471

net.4.weight f4 [1, 32]
000000 33 a5 60 40 4e 01 64 40 6b c1 69 40 90 49 65 40
       3.510083 3.5625796 3.6524303 3.582615
000010 ab 10 9e bd 89 68 b3 bd 34 04 99 bc 6b d1 3f bd
       -0.07718023 -0.08760173 -0.018678762 -0.046830576
000020 7a 46 42 bd b0 59 6b 40 c6 ed 60 40 4e 37 8c bd
       -0.047430493 3.677349 3.5145125 -0.06846486
000030 9b 0b 46 40 cc 29 eb bb 47 6c bf bd 8b b7 c4 bd
       3.0944583 -0.0071766134 -0.09346824 -0.096053205
000040 29 27 61 40 0e 3a bc bd 32 76 61 40 65 a7 6a 40
       3.5180151 -0.091907606 3.522839 3.666467
000050 37 ff 69 40 b9 0a 9a bc 8a 95 6a 40 46 40 67 40
       3.656202 -0.018803941 3.6653771 3.613298
000060 47 64 60 40 b2 8f b7 bc bb 93 23 bd 13 4b 6c 40
       3.5061204 -0.022407386 -0.03993581 3.6920822
000070 f2 65 6d 40 01 97 66 40 08 ee 02 be 01 07 43 bc
       3.7093472 3.6029665 -0.12786114 -0.011903525
