Chapter 11/models/pytorch_reg_model.pth (torch, 13292 bytes, 5 tensors)

net.0.weight f4 [64, 7]
0	0xbf893032	-1.0717833
1	0x4049f7ea	3.1557565
2	0x4034b520	2.823555
3	0xbfe133ff	-1.7593993
4	0x405538cb	3.3315914
5	0x40291c78	2.6423626
6	0xbfc8a6ac	-1.5675864
7	0x404efe16	3.2342582
8	0x3dc5360a	0.09629448
9	0xc033911a	-2.8057313
10	0xc0329762	-2.7904897
11	0xc02c07da	-2.6879792
12	0xbf8e8c82	-1.113663
13	0x405b5d54	3.4275713
14	0xc00a6ada	-2.1627717
15	0x3fd50fa8	1.6645403
16	0x4041f22d	3.0304062
17	0xc00afae7	-2.1715639
18	0xc04b9b93	-3.1813705
19	0xc054742d	-3.3195908
20	0x400ebbc9	2.2302115
21	0x4053821b	3.304816
22	0x403b22aa	2.9239907
23	0x402bb33d	2.6828148
24	0x3fdb35a9	1.7125751
25	0x3fd7b423	1.6851848
26	0x3fe20be2	1.7659876
27	0x403c97e0	2.9467697
28	0x40384353	2.8791091
29	0x4001baf0	2.0270348
30	0x402e0f12	2.7196698
31	0xc0031cde	-2.048637
32	0x405220cc	3.2832518
33	0x404241c3	3.0352638
34	0x4051fa00	3.2808838
35	0x3f07d04d	0.53052217
36	0x40266fbe	2.6005702
37	0xc0043f2a	-2.0663552
38	0xc0459802	-3.0874028
39	0xc025fba6	-2.5934844
40	0x3f01de41	0.5072976
41	0x40513427	3.2688081
42	0x402842ae	2.6290698
43	0x4029d1e4	2.6534357
44	0xbfbd6914	-1.4797692
45	0xbfe96292	-1.8233206
46	0xc039ea0a	-2.9049096
47	0xc0383c13	-2.8786666
48	0xbf0407d2	-0.5157443
49	0x400ce0a1	2.2012103
50	0x40394b8f	2.8952367
51	0x3f89bc49	1.0760585
52	0x4014cde6	2.325067
53	0x403f10ba	2.985396
54	0xc024ad09	-2.5730612
55	0xc014b02a	-2.3232522
56	0x3e599a6b	0.21250312
57	0x405022b5	3.2521183
58	0x402d8bee	2.7116656
59	0x40233f4a	2.5507379
60	0xbf8257f1	-1.0183088
61	0x4051be7f	3.277252
62	0xbeb5b2e6	-0.3548805
63	0x3f85d0df	1.0454367
64	0x402b003b	2.671889
65	0xc0194a5c	-2.3951635
66	0xc021d745	-2.528764
67	0xc02a687b	-2.662627
68	0xbf4da3b5	-0.8032792
69	0x404aebda	3.1706452
70	0xc023b2d0	-2.5577888
71	0x4036241d	2.8459542
72	0xc04b743d	-3.1789696
73	0x400983d2	2.1486707
74	0xc04ded5d	-3.2176125
75	0xbf98cf95	-1.1938349
76	0xbfd5d421	-1.6705362
77	0x3fd44604	1.6583867
78	0x40451e35	3.0799687
79	0xc029022b	-2.6407573
80	0x4029b123	2.6514366
81	0x3fe6f6fd	1.8044125
82	0x3f505a78	0.81388044
83	0xbfe92191	-1.8213369
84	0x3f92751d	1.144199
85	0x403cd837	2.9506967
86	0x401dc9eb	2.465449
87	0x4008679b	2.1313236
88	0x403b171d	2.9232857
89	0xbfa2a4c3	-1.2706531
90	0xc01f0f7f	-2.4853208
91	0x401bb584	2.4329538
92	0x3fe018f9	1.7507621
93	0x401a67c7	2.412584
94	0xc031ca1d	-2.777961
95	0x405326ee	3.299251
96	0xbfd78b72	-1.683943
97	0x3ff32dad	1.8998314
98	0xc016c978	-2.3560467
99	0x3f883c5c	1.064342
100	0x403f78ae	2.9917407
101	0x40330c34	2.7976198
102	0xc02d2840	-2.7055817
103	0x403ba3ee	2.9318805
104	0x40391ec1	2.892502
105	0x401bfc0f	2.4372594
106	0x402b6b7c	2.6784353
107	0xbe4fdfd1	-0.20300223
108	0x4036ecb9	2.8581984
109	0xc01c45a9	-2.4417517
110	0xc047dfb0	-3.1230278
111	0xc01c0200	-2.437622
112	0x3e21a39c	0.15785068
113	0x400f1cd3	2.2361343
114	0xc0382d61	-2.8777697
115	0x3f08a8f0	0.5338278
116	0x4033aaf7	2.8073099
117	0xbfc8711a	-1.5659516
118	0xbffff1e6	-1.9995697
119	0xc010bf91	-2.2616923
120	0x4020d4f8	2.5129986
121	0xc00e2994	-2.2212877
122	0xbdc5b3ad	-0.09653411
123	0xc00d6538	-2.209303
124	0x40439a1d	3.0562813
125	0x3f503f2f	0.8134641
126	0x404a5e88	3.1620197
127	0x401684d2	2.3518567
128	0x3f9c2c92	1.2201102
129	0x40229350	2.5402412
130	0xbf947529	-1.1598254
131	0x4033151d	2.7981637
132	0x4008d47e	2.1379695
133	0xbff63431	-1.9234678
134	0x402caf3f	2.6981962
135	0xc0297420	-2.6477127
136	0x40371ce9	2.8611395
137	0x40514881	3.2700503
138	0x403a10f2	2.9072843
139	0xc01ccfc5	-2.4501812
140	0xc01e7fea	-2.4765573
141	0x40239519	2.5559752
142	0xbf9c762c	-1.2223563
143	0xbf741c1c	-0.9535539
144	0x404361df	3.0528486
145	0xc02f67bb	-2.7407062
146	0xbfb4dd9b	-1.4130129
147	0xc02b651e	-2.6780467
148	0x400e31fd	2.221801
149	0xbef2a3bd	-0.47390547
150	0x40498b25	3.1491177
151	0x4044521f	3.0675123
152	0xc0060715	-2.0941823
153	0xbfa14ff2	-1.2602522
154	0x402a9053	2.6650589
155	0x40214b0a	2.520205
156	0xbffe7129	-1.9878284
157	0x4031dec3	2.7792213
158	0xc03f61d9	-2.9903471
159	0x40490e2d	3.1414902
160	0xc02add65	-2.6697628
161	0x4033f409	2.8117697
162	0x40354746	2.8324752
163	0xc036c186	-2.8555617
164	0x4035e97f	2.8423765
165	0xbe98e814	-0.29864562
166	0xbfa1cbf1	-1.2640363
167	0xbeddafa8	-0.43298078
168	0xbfdaed9b	-1.7103761
169	0x3f7bab4f	0.9830827
170	0xc0289447	-2.6340501
171	0xc048e253	-3.1388137
172	0xc003eb09	-2.0612204
173	0x4057fdf9	3.3748763
174	0x402c2921	2.6900103
175	0xbfad9927	-1.3562363
176	0x3f748bad	0.9552563
177	0x3ffcbfef	1.9746073
178	0xc04652b0	-3.0987968
179	0x40415c77	3.0212686
180	0xc04615e7	-3.0950868
181	0x40013805	2.0190442
182	0x4036f21b	2.858527
183	0x40202fac	2.5029097
184	0xc0347203	-2.8194587
185	0xbff1f6de	-1.8903463
186	0x40032a43	2.0494545
187	0xc01edb06	-2.4821181
188	0x3fad4362	1.3536189
189	0x4039e1e8	2.9044132
190	0x3ffcbe04	1.9745488
191	0xbfa29394	-1.2701287
192	0x402309d8	2.5474758
193	0x40542d73	3.315274
194	0x402538ef	2.5816
195	0x3fb3aa72	1.4036391
196	0xc01c1c87	-2.4392412
197	0x404d015a	3.2032075
198	0xbfda38df	-1.7048606
199	0x40051734	2.0795412
200	0x4034d0b8	2.8252392
201	0x3f39f901	0.72645575
202	0x4015e6d4	2.3422136
203	0xc01c8c7e	-2.446075
204	0x4046b8b4	3.1050234
205	0x40410aad	3.0162766
206	0xbf3ef90b	-0.7459876
207	0xc02483e5	-2.5705502
208	0xc04b0763	-3.1723258
209	0xbf57157f	-0.84017175
210	0x4045038c	3.0783415
211	0x403a6c79	2.9128706
212	0xbff13980	-1.8845673
213	0x40190030	2.3906364
214	0xc0350254	-2.828267
215	0x3e798a1b	0.2436909
216	0xc035c6a4	-2.840249
217	0x403dfcc2	2.968552
218	0x4041d6a3	3.0287254
219	0x3fecbb65	1.8494688
220	0x3fc820a5	1.5634962
221	0x3fdae6f3	1.710173
222	0xc0330142	-2.7969518
223	0x4049e6f2	3.1547208
224	0xc01f5cea	-2.490046
225	0x401586a4	2.3363428
226	0x4043d615	3.0599415
227	0xc0482ee7	-3.1278627
228	0x4048c325	3.1369107
229	0x40077d68	2.1170292
230	0xc0136745	-2.303178
231	0x40569ea0	3.3534317
232	0x4037fedd	2.8749306
233	0xc0447c90	-3.0701027
234	0xc022df5a	-2.5448823
235	0xc038a409	-2.885012
236	0x3f07f96c	0.5311496
237	0xc01f1d0a	-2.4861474
238	0xc0231bf2	-2.5485806
239	0xbe5c1eb6	-0.2149609
240	0xc03ea3b8	-2.9787426
241	0xc05736e8	-3.3627262
242	0xc0174de2	-2.3641286
243	0x4027b23c	2.6202536
244	0x4031654f	2.7718084
245	0x404dde73	3.2167022
246	0x3fbc009a	1.4687684
247	0xc030292a	-2.7525125
248	0xc04389a8	-3.0552769
249	0xc00a2ab0	-2.1588554
250	0xc02f71d1	-2.7413218
251	0x40514c7a	3.2702928
252	0x3faa5066	1.3305786
253	0x40172210	2.361454
254	0xc03f5dd9	-2.990103
255	0xc00a2701	-2.1586306

net.0.bias f4 [64]
0	0x405fffee	3.4999957
1	0x405ec56b	3.4807994
2	0x40594b7a	3.3952317
3	0x40602677	3.5023477
4	0x405e1360	3.4699326
5	0x40735fe8	3.8027287
6	0x407f2610	3.9866982
7	0x4076dfde	3.8574138
8	0x4065bf65	3.5898068
9	0x4075c5a4	3.840188
10	0x405338fc	3.300353
11	0x407f60a0	3.9902725
12	0x407dcc82	3.9656072
13	0x4069e775	3.654752
14	0x4056d55f	3.3567731
15	0x405b9c53	3.4314163
16	0x4078da99	3.8883421
17	0x407d4263	3.957177
18	0x407aa6c3	3.9164283
19	0x405d2534	3.4553957
20	0x406ef3d3	3.7336318
21	0x406f33bc	3.7375326
22	0x405cc9f2	3.4498258
23	0x40720b90	3.7819557
24	0x4057224b	3.361468
25	0x406e1503	3.7200325
26	0x407c167d	3.9388726
27	0x40794d1b	3.8953311
28	0x406afc02	3.6716313
29	0x405c897f	3.445892
30	0x40592b86	3.3932815
31	0x405a53cc	3.4113646
32	0x405f0202	3.4844975
33	0x4051c21c	3.2774725
34	0x40588052	3.382832
35	0x40578815	3.3676808
36	0x4073a6ca	3.807055
37	0x407eaec0	3.979416
38	0x406f8993	3.7427719
39	0x40689664	3.634179
40	0x407dfe6c	3.9686537
41	0x406c839d	3.695533
42	0x40597bde	3.3981853
43	0x4076dba9	3.857157
44	0x405998a7	3.3999422
45	0x40797559	3.8977873
46	0x407d3594	3.9563951
47	0x405a99ed	3.415645
48	0x405e2259	3.4708464
49	0x4074bc55	3.8239949
50	0x40643979	3.5660079
51	0x406e6cc6	3.725389
52	0x4069e21b	3.6544254
53	0x406ad5eb	3.6693065
54	0x4079e4e3	3.9045951
55	0x40676acb	3.6158931
56	0x4066669f	3.6000135
57	0x40549efc	3.3222036
58	0x4064f5de	3.5775065
59	0x405288d8	3.2896023
60	0x407bdac6	3.9352279
61	0x40805a76	4.0110426
62	0x40602052	3.5019727
63	0x4067dca0	3.622841

net.2.weight f4 [32, 64]
0	0x3cad01e5	0.021119067
1	0xbd4abae1	-0.049494628
2	0xbcfd06b5	-0.030886987
3	0x3db7ee22	0.08980967
4	0xbe095270	-0.13410354
5	0xbe03a00b	-0.1285402
6	0x3db625c3	0.08893921
7	0x3d83557a	0.06412788
8	0xbcb4e769	-0.022083001
9	0x3d74188a	0.059593715
10	0x3c88136c	0.016610824
11	0xbe180f0c	-0.1484949
12	0x3d5f5629	0.054525528
13	0x3d05a778	0.032630414
14	0x3c9ec924	0.01938302
15	0xbdf5beff	-0.1199932
16	0xbd6f12a2	-0.05836738
17	0x3d969011	0.07351697
18	0xbd90185d	-0.07035897
19	0xbd05ced0	-0.032667935
20	0x3d3dbdbd	0.046323527
21	0xbe0d6496	-0.13807902
22	0x3d38f9d0	0.045160115
23	0x3cca199f	0.02467042
24	0xbcfa672b	-0.030566772
25	0x3d95684c	0.07295284
26	0xbddfe7ea	-0.10932906
27	0xbe0fcd7f	-0.14043234
28	0x3d9e4346	0.07727675
29	0xbdcbcb57	-0.09950893
30	0xbd5c2e2c	-0.05375497
31	0x3c6afbf5	0.014342298
32	0x3c71f66e	0.014768226
33	0xbd7b85c6	-0.061406873
34	0xbd5d8574	-0.05408235
35	0x3d2c4e58	0.042066902
36	0xbd8ac7f1	-0.06776417
37	0x3c9287ba	0.017886985
38	0xbe1c7a2e	-0.15280983
39	0x3caed3ca	0.021341223
40	0x3bf2d9e2	0.0074112276
41	0xbd359536	-0.04433175
42	0x38425203	4.6329584e-05
43	0xbc87a690	-0.016558915
44	0xbe02c26a	-0.12769476
45	0xbc366e11	-0.01113464
46	0xbd4cc586	-0.04999306
47	0x3ce1e517	0.027575059
48	0xbdf70fe3	-0.12063577
49	0xbcfa9f31	-0.030593487
50	0x3d8e5141	0.06949092
51	0xbe020425	-0.12696894
52	0xbdd4923b	-0.10379454
53	0xbccc719e	-0.02495652
54	0xbd9b6d33	-0.075891875
55	0xbd882c10	-0.06649029
56	0x3d96ef6a	0.07369883
57	0xbe240652	-0.16018036
58	0x3a43aede	0.0007464717
59	0x3ba62a5a	0.0050709667
60	0x3d74c8ca	0.0597618
61	0xbe2026f8	-0.15639865
62	0xbdb684e2	-0.08912064
63	0x3d6c3e80	0.057676792
64	0xbcee2432	-0.029069994
65	0xbdea4c7b	-0.11440369
66	0x3d7cb2f0	0.061694086
67	0xbd858b0f	-0.06520664
68	0xbda77ba2	-0.08177878
69	0xbdd606fa	-0.104505494
70	0xbde636a5	-0.11240891
71	0xbdcfb416	-0.101417705
72	0xbe1f32c7	-0.15546714
73	0xbd617627	-0.05504432
74	0x3daf6fcd	0.08566246
75	0x3c820198	0.0158699
76	0x3d9c71a9	0.076388665
77	0x3cac3ef9	0.021026121
78	0x3d1d43fd	0.038394917
79	0xbdac620a	-0.08417137
80	0xbd4be462	-0.04977835
81	0x3cd42b40	0.02589953
82	0xbd0a47f1	-0.033760015
83	0xbdb6eb04	-0.089315444
84	0x3bded7d8	0.006800633
85	0xbd91c408	-0.07117468
86	0x3d6409fc	0.055673584
87	0xbd2d41e4	-0.042299166
88	0xbce411bc	-0.027840488
89	0xbd162f17	-0.036666002
90	0xbd3b700f	-0.045761164
91	0xbda0344d	-0.078224756
92	0xbda071dc	-0.07834217
93	0xbe0656ef	-0.131191
94	0x3df2e664	0.1186035
95	0x3d955193	0.0729095
96	0x3d6a8145	0.057252187
97	0xbdc86c32	-0.097862616
98	0x3d21b97d	0.039483536
99	0xbd19405a	-0.037414886
100	0xbd18c3d4	-0.03729613
101	0xbb96cd2b	-0.0046020946
102	0xbd89a1fe	-0.06720351
103	0x3dce4342	0.10071422
104	0xbdebe17b	-0.11517616
105	0x3d5dac5c	0.054119453
106	0x3d88b62d	0.06675372
107	0x3d96e0a7	0.07367068
108	0x3d97dbf8	0.074150026
109	0xbdaa6dac	-0.083216995
110	0xbe1062e7	-0.14100228
111	0xbdd0844e	-0.10181485
112	0xbda6f3d6	-0.08151977
113	0xbe04d9aa	-0.12973657
114	0xbdf91e9e	-0.12164043
115	0xbdb7a081	-0.089661606
116	0xbcce97cf	-0.025218872
117	0xbde39983	-0.111132644
118	0xbc38ccfa	-0.011279339
119	0x3dd2812a	0.10278542
120	0xbdf2f935	-0.11863939
121	0xbdec4876	-0.11537258
122	0xbde2827e	-0.11060046
123	0xbd93d1e7	-0.0721777
124	0xbd3a581f	-0.045494195
125	0xbd0cbafa	-0.034358002
126	0x3d9e4581	0.077281006
127	0x3de303de	0.11084722
128	0x3d18ee34	0.037336543
129	0xbdda1794	-0.106490284
130	0x3cebcc13	0.028783834
131	0xbe089040	-0.13336277
132	0x3c169812	0.00919153
133	0xbbffd587	-0.007807437
134	0xbdfdec7e	-0.12398623
135	0xbda73553	-0.08164468
136	0xbe18c22c	-0.1491782
137	0x3c9cd047	0.019142283
138	0xbdca4eb6	-0.09878294
139	0xbcb9646f	-0.022630898
140	0x399b2c99	0.00029597132
141	0xbe0d893b	-0.1382188
142	0xbda1aba3	-0.07894065
143	0x3d17fc95	0.037106115
144	0xbdd41f20	-0.10357499
145	0x3c28c19e	0.010300068
146	0xbdb9771a	-0.0905592
147	0xbd278657	-0.0408996
148	0x3cb53bdc	0.02212327
149	0x3d4d5397	0.050128546
150	0x3d35690e	0.04428964
151	0xbc143c21	-0.009047539
152	0x3c064ee8	0.008197524
153	0xbd24c058	-0.040222496
154	0xbdc76f6f	-0.09738051
155	0x3c264849	0.01014907
156	0x3d6acaf6	0.057322465
157	0xbcab92cc	-0.020944022
158	0xbdf23bbc	-0.118278
159	0xbe1f5530	-0.1555984
160	0xbe0e1218	-0.1387409
161	0x3be5bba6	0.007010895
162	0xbb72cbd4	-0.003704776
163	0x3d2d35ab	0.04228751
164	0xbd703b01	-0.05865002
165	0x3db51fc3	0.08843949
166	0x3c926c0d	0.017873788
167	0x3d9bec10	0.07613385
168	0x3db6cf2b	0.08926233
169	0xbd358be9	-0.04432288
170	0x3d022524	0.0317737
171	0x3d69a710	0.05704409
172	0xbdfa469c	-0.12220499
173	0xbce58c47	-0.028020991
174	0xbde8a965	-0.113604344
175	0x3cd7ecad	0.026357973
176	0x3d8a08ce	0.067399606
177	0xbe0b822b	-0.13623874
178	0x39ae6652	0.000332641
179	0xbdc6a181	-0.09698773
180	0xbd50c481	-0.05096865
181	0xbcb03f43	-0.02151454
182	0xbdf8f459	-0.121559806
183	0x3d6f673c	0.05844806
184	0xbd8b25f3	-0.067943476
185	0x3d1af675	0.037832696
186	0x3db5930a	0.08865936
187	0x3d8efb64	0.06981543
188	0x3ba3434b	0.004982387
189	0xbdff0264	-0.12451628
190	0x3d1edc92	0.03878457
191	0xbde61e32	-0.11236228
192	0x405b55b8	3.4271069
193	0x40698639	3.6488173
194	0x40605c8b	3.5056484
195	0x405b1897	3.4233758
196	0x405c444d	3.4416687
197	0x4058f42b	3.3899028
198	0x40562803	3.3461921
199	0x405a19d7	3.4078271
200	0x404e8e98	3.2274532
201	0x405dde7e	3.4667048
202	0x405b753b	3.4290302
203	0x40554aaa	3.3326821
204	0x404e7392	3.2258039
205	0x405f212b	3.4863994
206	0x406437c3	3.5659034
207	0x405689b6	3.3521552
208	0x4057c45f	3.3713605
209	0x40525647	3.286516
210	0x405e5eda	3.4745393
211	0x40584e52	3.3797803
212	0x405463b7	3.318586
213	0x405307b2	3.2973447
214	0x405e2603	3.47107
215	0x4053e78f	3.3110082
216	0x40704f7c	3.7548513
217	0x40604c7f	3.504669
218	0x40558038	3.3359509
219	0x4060dcf1	3.5134852
220	0x405a402f	3.4101675
221	0x40580baf	3.375713
222	0x405ce134	3.4512453
223	0x4054790b	3.3198879
224	0x405b17fd	3.4233391
225	0x405bb406	3.4328628
226	0x4067d519	3.6223814
227	0x405c9e7f	3.4471738
228	0x40533772	3.300259
229	0x4054c5c1	3.32457
230	0x40527903	3.288636
231	0x405bbf48	3.43355
232	0x405b2c1a	3.4245667
233	0x405b2c25	3.4245694
234	0x405c98a0	3.4468155
235	0x4055a680	3.3382874
236	0x4060e3b6	3.5138984
237	0x405d0e06	3.453981
238	0x4050d28b	3.2628505
239	0x40507d05	3.2576306
240	0x40592a5f	3.3932111
241	0x4050f3d9	3.2648833
242	0x405844f9	3.3792098
243	0x4056bed5	3.3553975
244	0x4056f784	3.3588572
245	0x40539b8d	3.306369
246	0x405728b7	3.36186
247	0x40584674	3.3793
248	0x405c0330	3.4376945
249	0x405cc881	3.4497378
250	0x40591d4e	3.3924136
251	0x40556a48	3.334612
252	0x404d4cf5	3.207822
253	0x4052c16f	3.2930562
254	0x40595aa5	3.3961575
255	0x4052a7e4	3.2914972

net.2.bias f4 [32]
0	0xbcd8580f	-0.026409177
1	0xbbafd358	-0.0053657703
2	0xba82ef35	-0.0009989502
3	0x403013da	2.7512116
4	0x403de803	2.9672859
5	0xbe19b720	-0.15011263
6	0x403f7b3b	2.9918964
7	0x403b579b	2.927222
8	0x403f3db4	2.988141
9	0x3d606fbe	0.054794066
10	0x402ecc69	2.7312262
11	0x4036c1ab	2.8555706
12	0xbd907445	-0.07053427
13	0x403e25d7	2.9710596
14	0xbd96acc1	-0.07357169
15	0x40340acf	2.8131597
16	0x403b41a6	2.9258819
17	0x4038cd0e	2.8875155
18	0xbe0b64cb	-0.13612668
19	0x3dcfb50c	0.10141954
20	0x3d5214f3	0.05128951
21	0xbdaaedd8	-0.08346146
22	0x403afb6a	2.921595
23	0xbe01756b	-0.12642448
24	0x3da746eb	0.081678234
25	0xbd75d2ea	-0.060015596
26	0x4043431c	3.050971
27	0xbc11899b	-0.008882905
28	0xbda19f69	-0.07891733
29	0x402f0a14	2.7349901
30	0x4033cb89	2.8092978
31	0x40306ef5	2.7567723

net.4.weight f4 [1, 32]
0	0xbda8ccb6	-0.082421705
1	0xbcdb4980	-0.026768446
2	0xbe00696a	-0.12540212
3	0x406d0c37	3.7038705
4	0x406a1960	3.6577988
5	0xbcce32f0	-0.025170773
6	0x406ad102	3.6690068
7	0x406bfe66	3.6874022
8	0x40661868	3.5952396
9	0xbdadd6ab	-0.0848821
10	0x406cd141	3.7002718
11	0x406149c9	3.5201285
12	0xbd855dcc	-0.06512031
13	0x406441b9	3.5665114
14	0xbdc05ca3	-0.09392669
15	0x4069efd5	3.6552632
16	0x406c9dda	3.6971345
17	0x40652108	3.580141
18	0xbd7ee196	-0.062226854
19	0xbe251290	-0.16120362
20	0xbde84913	-0.11342063
21	0xbdd789db	-0.10524341
22	0x406de9c7	3.7173936
23	0xbd947fd4	-0.07250944
24	0xbdec909a	-0.11551018
25	0xbe0aab08	-0.13541806
26	0x4064f220	3.5772781
27	0xbdb98d55	-0.0906016
28	0xbd583f3a	-0.052794673
29	0x406ebb2a	3.7301736
30	0x406d8ba6	3.7116485
31	0x406b972b	3.6811016
